models/gripperEnabled-v02/pyt_save/model.pt (torch_old, 553081 bytes, 16 tensors)

log_std f4 [4]
00000000: 0e70 b2bf 0a83 b3bf dbdc bcbf aa22 33bf
-1.3940446 -1.4024365 -1.47549 -0.6997477

weight f4 [128, 16]
00000000: f180 7f3c b55f 233e b3f6 48be 8d34 36be
00000010: d23f b4bd 41cf bc3d cb03 4d3c 2506 653e
00000020: 8cb7 4fbc 3697 233e 2c6d 36be 7550 d53d
00000030: b088 2abe 6892 d1bd 4182 0fbe 1300 3d3e
00000040: 2be6 ba3d 2144 143e 6bae 3cbe f5c3 f5bd
00000050: 3933 9d3d 3efe 603e 64c3 71bd 653a 3a3e
00000060: db90 61bd 9ffc ce3d 8b33 843e d901 36be
00000070: 0561 1abe 6bb7 f7bd a3f5 a83d 46c6 703e
00000080: e1df 11be 93c4 dabd 4166 2abe 44b0 68be
00000090: dc9c 00be 371b 783e 7d4a 063e bf89 043e
000000a0: 3255 af3c bfc5 d7bd 7eca b83d d159 78be
000000b0: a7f4 81be f8f3 1abe cc83 ba3e 3091 bd3d
000000c0: 4ea1 12be 4b69 2cbd 2d92 113e a9a2 6a3e
000000d0: 15e2 a33d 8b07 05bc 908c 0a3e 7599 38be
000000e0: a060 ec3c 0310 95be a5ec 93be b6b0 b4bd
000000f0: f030 47bc d8c1 d13d b61a 60be 4d21 403c
00000100: 3440 053e f6bb 1abd 1b06 cbbb 11ea 573d
00000110: 1e80 1c3e f57c 823e d090 4cbe 6860 c8bd
00000120: 97fb a83d fd05 8f3e bef5 9c3e f240 a13e
00000130: 3c78 203e 7cae b5be 27ad 8c3e caec 2abe
00000140: ed05 51be 522a 813e 92cf 5b3e 5340 65be
00000150: bdec 803d a4a2 1bbd aa20 49bc 429e acbd
00000160: cd35 f73d 67db 77be af26 c53d 03dc 803e
00000170: 8250 803d e6f8 be3d 1dcd a5be 118e 97be
00000180: 2a41 0c3e 90c6 403d a88c 49be f193 16be
00000190: 970d 7e3e ac45 403e 5562 c6bd 32a3 8bbd
000001a0: 8ab6 75be 4241 093d 75ce 14be a3b1 9cbe
000001b0: 066a 86bd 531f 6f3d 8a38 e23d 835d 3c3d
000001c0: 22fb 19be 4ebb 7b3e 040d 3a3e ba6d 4ebe
000001d0: 6bd2 94bd 287e 013c c69f 1c3d 9c52 a03d
000001e0: 9026 de3d 956b 8d3d 5bc1 3fbe 85b9 2c3e
000001f0: 27bc 34be 54dd 43be 3d4d 46be f4a7 85bd
00000200: 4b82 b9bd 34f6 5fbe 5a81 7dbd 0ecd 203d
00000210: 9056 30be 6cdc f1bc 950f 343e add2 21bd
00000220: 6d3a e7ba 11bb fcbd ba21 7d3e 9ddd 253e
00000230: 9557 f93d 797f 623e b426 ba3e f639 c9bc
00000240: 780d 3ebe 2cf6 9ebd 2bbe 4b3e d5b8 2a3d
00000250: e800 9fbd 8ba6 26be 12a9 47be e62e 2ebe
00000260: 65f5 b3bc fa84 313e 19ac 3f3e 20e7 c7be
00000270: 9206 a73e f53f 9abe 8705 e1bd fc8d e9bd
00000280: 592e 283c 299c d83b b780 36be 706e 1bbe
00000290: eb22 183d 8e34 793d d4e4 61bd d077 193e
000002a0: 3732 37be 07eb 51be f7ec 47bd 1381 c3bc
000002b0: c694 213c b36d a83d be2a d5bd 160d bc3e
000002c0: 0a8a febc 91ee 02be 0dac 463e 2cb4 5dbe
000002d0: 5d38 d63c 8d10 9fbd 4089 343e 063d 5b3d
000002e0: a0f0 e93d 4353 d73d 9e40 3ebd fe13 da3a
000002f0: 1650 8abe 2c39 2b3e 871d 803d 307a ae3e
00000300: 4dde 1ebe e748 313d 68f9 19be 069d dcbd
00000310: 00e6 03be 5450 db3d 65d8 02be 268c da3c
00000320: 4408 153d 3545 d83e d54c 84bb 8378 51be
00000330: 2847 e0be a89d 043e b3f8 58be 4b7f 443e
00000340: cda4 a93d a7bf cd3c c71f 0cbc 9f90 7ebd
00000350: 827d b93c 4eb8 8fbd c8c6 18bc afba cf3c
00000360: b818 4fbe 44c9 6abe 398f b33d d5fd d7be
00000370: 0cc3 aebe 9180 6d3e 84f7 c33d fb7f 79bc
00000380: 895c 50be 6563 183e 5c60 2bbe e4f2 64bd
00000390: 3eb0 85bd 6900 28bc 4152 823c e5b8 6c3e
000003a0: b5b4 2b3d 9ed2 103f 8716 c03e 0551 8fbe
000003b0: c337 07be a54c 82be 1b3f 93be 3fb1 5e3e
000003c0: 38ff 8e3d 47a7 373e e00d b3bd 31a5 79bc
000003d0: 58d6 dd3d abec 8bbe 5c0d 2c3e db18 5cbe
000003e0: a7a4 65bb 7ff3 5abe 1461 99be 4c89 8bbc
000003f0: 7770 563e 28e6 10bc 657e c3be b88b 2abd
0.015594707 0.15954478 -0.19625358 -0.17793484 -0.08801235 0.09219218 0.012513111 0.22365625
-0.012678038 0.15975651 -0.17815083 0.104157366 -0.16653705 -0.10233003 -0.14014532 0.1845706
0.09125932 0.14479114 -0.1842591 -0.120002665 0.076757856 0.21971986 -0.05902423 0.18186338
-0.055069786 0.101067774 0.25820574 -0.17774142 -0.15076073 -0.12095531 0.082499765 0.23513135
-0.1424556 -0.10682025 -0.1664057 -0.2272349 -0.12559837 0.24229132 0.13114353 0.12943171
0.021402929 -0.10535764 0.09022997 -0.24253012 -0.25381967 -0.15132129 0.36428678 0.09256208
-0.14319345 -0.042092603 0.14215918 0.22913612 0.08002106 -0.008119474 0.13530183 -0.18027289
0.028854668 -0.29113778 -0.28891483 -0.088227674 -0.012157664 0.10242051 -0.2188519 0.0117266895
0.13012773 -0.03777691 -0.006195796 0.052713457 0.15283248 0.2548596 -0.19977117 -0.09784013
0.08251112 0.27934256 0.30656236 0.31494862 0.15670866 -0.35484684 0.27475855 -0.1669189
-0.20412417 0.252276 0.214659 -0.22387819 0.06295154 -0.037996903 -0.012275854 -0.08428623
0.120708086 -0.24204789 0.09626519 0.25167856 0.06265356 0.09324817 -0.32383052 -0.29600576
0.13696733 0.047064364 -0.19682562 -0.14704873 0.24809872 0.18776578 -0.09686724 -0.068182364
-0.23995414 0.0335095 -0.14531882 -0.30604276 -0.06563191 0.058379482 0.1104594 0.045987617
-0.15037206 0.2458317 0.18169028 -0.20159045 -0.072666965 0.007903613 0.03823831 0.078282565
0.10847199 0.06905285 -0.18726103 0.16867645 -0.176499 -0.19127399 -0.19365402 -0.06526175
-0.090580545 -0.21871263 -0.061890937 0.039258055 -0.17220521 -0.02952405 0.17584069 -0.039507557
-0.0017641314 -0.123403676 0.24719897 0.1619782 0.12174908 0.2211894 0.36357653 -0.02456377
-0.18559825 -0.07761797 0.19896762 0.041680176 -0.07763845 -0.16274469 -0.19498089 -0.17010078
-0.0219676 0.17335883 0.18717994 -0.39043522 0.326222 -0.3012692 -0.109873824 -0.114040345
0.010264956 0.0066104126 -0.17822538 -0.15178847 0.037142675 0.060841136 -0.055149868 0.14987111
-0.17890249 -0.20499812 -0.04880997 -0.023865258 0.0098621305 0.082240485 -0.10408543 0.36728734
-0.031071682 -0.12786318 0.1940157 -0.21650761 0.026149923 -0.07766829 0.17630482 0.053524993
0.11422849 0.10513928 -0.046448343 0.0016638038 -0.27014226 0.16721028 0.06255632 0.34077597
-0.15514489 0.043282416 -0.15036547 -0.10772137 -0.12880707 0.10708681 -0.1277786 0.026678156
0.036384836 0.422403 -0.0040374794 -0.20456128 -0.43804288 0.12950766 -0.21188621 0.19189183
0.082833864 0.025115801 -0.008552498 -0.06214964 0.022642855 -0.07017575 -0.009324737 0.025357572
-0.20224273 -0.22928339 0.08767552 -0.42185846 -0.34133184 0.23193575 0.09568694 -0.015228267
-0.203478 0.14881666 -0.16735977 -0.0558957 -0.06527756 -0.010254004 0.015908362 0.23117407
0.041920383 0.56571376 0.37517187 -0.279915 -0.13204865 -0.254491 -0.28759083 0.21747302
0.06982273 0.17934905 -0.08742881 -0.015237139 0.108318985 -0.27329 0.16801971 -0.21493857
-0.0035040767 -0.21381949 -0.29956877 -0.017033242 0.2094134 -0.008843936 -0.3818237 -0.041637152

bias f4 [128]
00000000: 0b90 f0bd ed51 b0bd f74d 16be eb55 aa3d
00000010: 7c47 203c 9ce5 6dbd f5af 83bc 0f45 383b
00000020: ecaf 563e 3ef9 833e aeaa 08be 3aee bc3d
00000030: 94b5 f83d 19a6 b93d 7688 90bc 30f5 633d
00000040: 9d0b 893d ebd1 863e 2254 66be bc35 9cbd
00000050: 2b5b 38be 0227 2fbe ce82 493d e823 273e
00000060: 2001 52be 7c16 173e 861e 4a3e 6b01 dbbd
00000070: f02f f23c 6fc8 08be bc61 1d3d 4c41 08be
00000080: 751b d6bd 1a09 23be 7647 4cbe 1ccc 4a3e
00000090: e429 90bc 72ee c2bc 1630 e8bd 09f9 2b3e
000000a0: 012d 06be 81ec fbbd 095e 5ebe 0d22 5fbe
000000b0: 4d94 523e fd43 42be f96f b4bc 1d8f adbd
000000c0: 8a6a ba3d 8e5f b93d d1e1 4bbe 48ec 423e
000000d0: ecb3 64be dc62 723c b400 92bc d475 74bd
000000e0: 202b 053e c7b7 503e 0f4a 673c 35f2 65bd
000000f0: 413a 4e3e d23a 193e 1197 2d3d 1cfd 8ebd
00000100: 8d37 00bc f1d0 663e 525c 303b 35ce 3dbd
00000110: 5031 50be f2fd f5bd 7f49 543e 277f a93c
00000120: bcf1 59ba d8ee e23d 75fb 23be 88a7 6dbb
00000130: b7d4 b2bd e430 123e 7ec5 223e a0ad 083e
00000140: 13d0 343e 26bc 6cbe f714 babd a5f9 633d
00000150: e224 53be c993 393d 60ff 2fbe 9069 c13d
00000160: 4bfd 3c3e 82e0 43be 0bd2 703e 0eec 113e
00000170: f6b5 32be ed74 6a3e e836 55be 23d4 28be
00000180: 56c9 03be 580b 18bb 3011 943d e2d9 b4bd
00000190: 4dc0 57be 0453 9ebc 48f2 363e 896a 403e
000001a0: 608b ec3d 2f3c 833d 4430 7f3d e382 52be
000001b0: fe0b 9a3d 6990 61be 940f bbbd e455 95bd
000001c0: 60e7 193e d896 e9bc f7bf 9abd 6624 543d
000001d0: c406 7ebe e162 2ebd 5008 993d 928f febb
000001e0: a2d9 25bd 4406 353e b82f 3dbe 1993 bfbd
000001f0: 445e 773e 6d1b 133d ae62 d2bc 0c44 f03d
-0.11746224 -0.08609376 -0.14678179 0.08317169 0.009782668 -0.0580803 -0.016075114 0.0028117334
0.20965546 0.25776094 -0.13346359 0.092251256 0.12144008 0.09064884 -0.017643195 0.05565375
0.06691668 0.2633203 -0.22493032 -0.076274365 -0.18003528 -0.17104724 0.04919701 0.16322291
-0.20508242 0.14754671 0.19738206 -0.1069363 0.029563874 -0.1335771 0.038423285 -0.13306159
-0.10454456 -0.1592144 -0.19949135 0.19804424 -0.0175981 -0.02379534 -0.11337297 0.16794218
-0.13103105 -0.12300969 -0.21715559 -0.21790333 0.20564385 -0.18971248 -0.022026049 -0.08474562
0.09102352 0.09051429 -0.19910361 0.19035447 -0.2233426 0.014794078 -0.0178226 -0.059682682
0.13004732 0.20382605 0.014116778 -0.05613919 0.2013941 0.14963844 0.042380396 -0.069818705
-0.007825744 0.22540642 0.0026910496 -0.046339232 -0.20331311 -0.12011327 0.20731162 0.020690514
-0.00083139143 0.11080712 -0.16013892 -0.0036263186 -0.087319784 0.14276463 0.1589565 0.13347483
0.17657499 -0.23118648 -0.0908603 0.055658 -0.20619538 0.045306955 -0.17187262 0.094439626
0.18455999 -0.19128612 0.23517625 0.14250204 -0.17452225 0.22896166 -0.20821726 -0.16487174
-0.12869772 -0.002320012 0.07229841 -0.0883062 -0.2106945 -0.019326694 0.1786586 0.1879064
0.11550021 0.064079635 0.06230189 -0.20557742 0.075218186 -0.22027744 -0.09133831 -0.07291773
0.15029669 -0.02851431 -0.07556146 0.051792525 -0.24807268 -0.042574767 0.074722886 -0.0077685798
-0.040490754 0.17678171 -0.18475235 -0.093542285 0.24157053 0.035914827 -0.02568182 0.11731729

weight f4 [256, 128]
00000000: 944c 063d f567 19bd d319 49bd 1153 a1bb
00000010: a861 e13c 3bca 87bc 2ed9 5f3d a4ea b6bd
00000020: 72f7 dcbc cc0c 813d 8cb2 683b 97db 573d
00000030: a222 ac3c 06e0 abbb d3f6 5ebd a16f 553d
00000040: 43f3 7fbd c7a0 9abc fe09 8f3b f0cb ba3c
00000050: ce36 fdbb 4291 62bd ae53 55be cfdd 6ebd
00000060: 80cc 133d 02c6 41bd c771 a33d 2d90 5f3d
00000070: 78d0 8dbd 997e 343d 926f d3bd e0bb 04bd
00000080: 8bca f6bd cf3e b0bd df64 82bc 7ca0 e2bd
00000090: 6241 733d 63b0 acbd 0aaf b33d 397d 853d
000000a0: cc8b 513d f750 c2bc 9efc 64bd 1a69 82bd
000000b0: c4bb 41bc 453f ecbc 6673 7abc a0d2 e2bc
000000c0: 56df 713d 5538 99bd 28e6 943d 1510 5bbd
000000d0: 31d4 9e3d d48d b0bc e98d 5fbc 9b8c 193c
000000e0: cf94 fe3c 6c4b e9bb 5d2e b3bd a4ff 663d
000000f0: 94d7 aa3d dc20 7a3d 8248 063e cd5d 963d
00000100: 8d5e 4abc 6951 71bd 2d76 9dbd a444 05bd
00000110: 6551 27bd 7195 393d a7e9 25bd 1d81 35bc
00000120: 0ff8 5fbc 881f 79bd 4840 b23c 1307 5a3d
00000130: b6a0 a33d f0d3 a23d f54a 7a3a ae64 f03b
00000140: c3ee 893d 5941 25bd c9aa 49bd a01e 9d3d
00000150: 8f30 b1bc a63c 5bbd 3929 e83d 1afe e63c
00000160: 47da 673d 9121 aebd 030b 413c f22a 493d
00000170: 0bfc 6dbc 0805 22bd 05af 143d 9444 163c
00000180: 4671 293d 0e2b 093d 7447 fa3b e171 703d
00000190: 1e63 0ebd 807d 5fbd d6d6 2f3d 13d3 193d
000001a0: 41c4 273d 204b 91bc f7ef db3c 9152 2c3c
000001b0: 2c4f ee3c c16f 9fbd 419f 8fbd ae7d 3f3d
000001c0: 9ef9 24bd eb2f 1abc c7fd 2c3c 7ed5 9a3c
000001d0: 36c6 6b3d c401 6e3c 331d e63c c61c c6bc
000001e0: c152 9d3a e2e0 db3c 9379 a23e 7515 afbd
000001f0: a1ce 633d 53fe 8dbd b511 25bd 98a0 903d
00000200: 5dea a6bd f93e 86bd 8225 4d3d 6262 43bd
00000210: 8ea2 973d 0234 cc3c 37b5 383c bdb6 9e3d
00000220: 40af d0bd de0d 723d c173 cb3c 0b0e a3bd
00000230: 5510 923c 4789 98bd 6682 08bd a41d 89bc
00000240: 5ac9 9cbc 92b8 783d 66ca 983d 2339 41bc
00000250: 635c 85bd 2774 4bba 9171 2c3e 1e68 653d
00000260: edbe d43c a566 d93c 5168 d63c 7c61 9dbd
00000270: 8a32 43bd 628c 83bd cfa9 953c ceca 7b3d
00000280: 1ad1 6f3c 9362 b63d eb64 c2bb 1574 7bbc
00000290: a1c4 733c c469 92bb b177 f0bc 6942 983d
000002a0: ca40 063c 5843 a43d 8c0c d83c bacc 73bb
000002b0: a49a f13d 35f9 98bd 47ae 3fbc a34c 2e3d
000002c0: bb39 99bc 6cd2 b7bd 9c2b 573c 2b0c bcbc
000002d0: c431 683d 76a1 da3c 5f6f cb3b 912b 613d
000002e0: ce65 6cbc 0a59 6bba bf7e 9e3d 48a4 99bd
000002f0: 60fe 8ebd 3b3c 643b 02e5 68bd f076 3b3c
00000300: 72aa a73d bbb5 47bc e3db 89bd 40d9 babd
00000310: 71b6 b23d 7d33 babc 0d9a 32bd 6f3d 163d
00000320: a735 4d3c 0f13 aebd e355 843d 3cef 8a3d
00000330: e430 ac3d f1ee 1a3c 2674 edbc cd4d c6bc
00000340: 5031 3f3d e149 7e3b 7c4b 35bc 6c47 c4bd
00000350: 31ed debc 7ebe 143d 4df4 85bc 7e21 28bd
00000360: 0774 9abd e9e9 653d 9529 c4bc ac4f bcbd
00000370: c4fc bc3d b3db 323d 95f1 15bd 7370 3fbd
00000380: 377b af3d 9b79 79bc 639d 81bd e773 4d3d
00000390: 9837 50bc d9dd be3b de8d 36bd 81a7 aebd
000003a0: 6530 60bd 8d4c 58bc 2581 d6bd 28bb bc3d
000003b0: 133e 873b a003 0bbd aa2b f43c 44b8 95bd
000003c0: 880c 31bd 80b7 313d 154a 95bd a295 0f3d
000003d0: 4778 7d3c da50 a5bd e82b bebd 8116 f63c
000003e0: aeec 823d 0522 c7bc 2ef1 57be d8b0 6ebd
000003f0: 282f 53bc a348 ac3b cd82 813c 6c87 3c3c
0.032787874 -0.037452657 -0.049096894 -0.0049232324 0.027512386 -0.016575923 0.054650478 -0.08931473
-0.02697346 0.06301269 0.0035506813 0.05269965 0.021012608 -0.0052452115 -0.05443461 0.05210841
-0.06248785 -0.018875493 0.004365205 0.022802323 -0.0077274805 -0.05531431 -0.20832703 -0.058317002
0.0360837 -0.047307976 0.07980686 0.054580856 -0.06924528 0.044066045 -0.10324015 -0.032405734
-0.12050351 -0.0860573 -0.01591724 -0.11065766 0.059388526 -0.084320806 0.087736204 0.06518025
0.05115871 -0.023720248 -0.055904977 -0.06367703 -0.011824552 -0.028838763 -0.015286302 -0.027688324
0.05905088 -0.074814476 0.07270461 -0.053482134 0.07755316 -0.021552004 -0.013644674 0.009371902
0.031076817 -0.0071195867 -0.087490775 0.05639614 0.083418995 0.061066493 0.13113597 0.0734211
-0.012351644 -0.05891553 -0.07688556 -0.032536164 -0.04084911 0.045308534 -0.04050603 -0.011078146
-0.013669982 -0.060821086 0.021759167 0.053229403 0.079896376 0.0795058 0.00095479126 0.0073362207
0.06734993 -0.040345524 -0.04923514 0.07671857 -0.0216296 -0.053524636 0.113359876 0.028197337
0.05660465 -0.08502496 0.011782411 0.04911322 -0.014525424 -0.03955558 0.036299724 0.009171624
0.04136779 0.033488326 0.0076379124 0.058702353 -0.034762494 -0.054563046 0.042929493 0.03755481
0.040958647 -0.017736018 0.026847823 0.010517732 0.029090486 -0.07784987 -0.07012797 0.046750717
-0.040277116 -0.009410839 0.010558552 0.01890063 0.057562076 0.014526788 0.028090095 -0.024183642
0.0012002812 0.02684063 0.3173338 -0.085490145 0.05561698 -0.06933274 -0.04030009 0.07061881
-0.0815017 -0.0655498 0.0500846 -0.047701247 0.07404052 0.024927143 0.011273674 0.07749698
-0.10189676 0.059095256 0.02483547 -0.07961663 0.017830053 -0.074480586 -0.033327483 -0.016737767
-0.01913898 0.060722895 0.074604794 -0.011793408 -0.06511762 -0.00077611435 0.16840197 0.056007497
0.025969947 0.026538203 0.026172789 -0.07684609 -0.04765562 -0.0642326 0.018269448 0.061472706
0.014637256 0.0890552 -0.0059324405 -0.0153475 0.014878423 -0.0044681747 -0.029353948 0.07434542
0.008194158 0.08020657 0.02637317 -0.0037200884 0.117970735 -0.074694075 -0.011699266 0.042553555
-0.018704286 -0.08975682 0.013132956 -0.02295502 0.056688085 0.026688319 0.006208345 0.05497319
-0.014428569 -0.00089778064 0.07739019 -0.07502037 -0.06982112 0.003482594 -0.056859024 0.011441931
0.08186807 -0.012189324 -0.06731393 -0.091234684 0.08726204 -0.02272963 -0.043603946 0.03667968
0.012524999 -0.08499729 0.06461694 0.067839116 0.08407763 0.009456382 -0.028986048 -0.02420702
0.046677887 0.003880136 -0.01106536 -0.09583935 -0.027212711 0.03631448 -0.016351843 -0.041047566
-0.07541662 0.056131277 -0.02394561 -0.09194884 0.09227899 0.043666553 -0.036607344 -0.0467381
0.08568423 -0.015226747 -0.06328847 0.05015936 -0.012708567 0.005824786 -0.04456889 -0.085280426
-0.054733653 -0.013201845 -0.10473851 0.09215385 0.004127273 -0.033939004 0.029805977 -0.073105365
-0.04322484 0.04338789 -0.07289521 0.03505481 0.015470571 -0.08072062 -0.09285718 0.030040028
0.06392799 -0.024308214 -0.21088096 -0.05827412 -0.012889661 0.0052576824 0.015809441 0.0115068965

bias f4 [256]
00000000: 1f11 86b8 e4df 9bbd 2e6f 973d 9189 1b3d
00000010: c7dd 9fbc 6eec ec3c 4c05 a93d 58e7 9a3d
00000020: 32c6 93bd ce30 c2bc c0e6 523b d7ea a03d
00000030: 3005 a5bc 78c0 89bd 57ae 66bd 3c61 66bd
00000040: 3e2a 6cbc 3048 533c 175f 343d 827f 2cbc
00000050: 37e5 dbbb c794 ac3b 9899 3c3d 7ab6 513d
00000060: 6980 b13d a521 8dbd 04e5 83bd aad6 adbd
00000070: d59f 3f3d 786f 81bd 754c 90bd 3f4b 3fbd
00000080: 0d7c 6bbd b8b4 a73d 6a66 cfbc c6fe edbc
00000090: 72eb 5d3d 99c4 8dbb ee63 1cbc 8b7e 90bd
000000a0: 8ac1 b83c c1e8 563d cde0 edbc 2581 913d
000000b0: e2ab 30bd b9f2 87bc b35a adba 7c1b 98bd
000000c0: 2c60 833c 05dd 7fbd f479 8dbd 6826 2d3d
000000d0: 6d45 2bbb d251 223d f4fb 073d 1e78 473d
000000e0: 3c51 72bd b16b c33c 3474 563d 299f 09bd
000000f0: b723 033d ec9e 28bd 7d4a bb3c b37f 0a3d
00000100: 6a1c aebd 09a0 983b 85bf bf3d 7a99 b9bd
00000110: 73da 8f3d de9c 99bc 97e7 6c3b b47d 43bd
00000120: f16b 0d3d 1cc1 0cbd f764 863c 4113 393c
00000130: 8be4 01bc bb96 35bd cacd 35bd 9a92 b33d
00000140: 095b 933d 3c2a 4d3d 5b85 0c3d 9838 f0ba
00000150: aa39 963d df4c 983d 4121 8ebd c88f d13c
00000160: 4cdb 82bd a6e7 44bd 71ce 32bb e696 9abc
00000170: 7138 223d a37a e4bc 9a76 27bd 03fc 8fbd
00000180: 9e1c 873d cc2a 5abd 4a18 64bd 08e8 9fbd
00000190: c058 22bd 1f5b 953d 089c a43d bc70 bfbc
000001a0: b812 263d b5b0 843c 81d3 9fbd 3a46 6abd
000001b0: 452d 21bd 318b 163c 5420 b4bc 08e0 49bd
000001c0: fdd3 9e3d f1db a43c ce05 193c 4a11 90bd
000001d0: 244c f33c 27d7 703d 861d c2bc e707 623d
000001e0: 66c6 08bd 9d0b 983d 9b7c 1ebd b659 8e3c
000001f0: eac6 68bd 557a 263d 3c34 1a3d cdb1 af3d
00000200: 6f69 083d 6c61 2b3c 9181 a1bd ad64 803c
00000210: 123e 39bc a6b0 a83d 3816 aabd 96d8 8a3b
00000220: a8e4 efbc f117 a4bd b074 5dbd 3882 86bd
00000230: 755f 86bc 8ba6 a63d 361e cd3c b8f5 0ebc
00000240: 4c77 53bd 445f 80bd 04e1 d0bc 9c5d 68bc
00000250: 5165 75bc 6ba3 2d3c b572 3f3b be3c 08bc
00000260: 2b55 6bbd a0eb 81bd b487 53bd 8802 2fbd
00000270: f4e3 a83d 707a 61bd 3469 4d3d 39b2 ab3d
00000280: d9dd 373d 27c7 87bd c228 bbbd e53c de3c
00000290: 195e 94bd bce4 5e3c f51c eb3c 4149 e9bb
000002a0: 0772 fabc 247b 4c3d 7089 873d c2f7 87bd
000002b0: e2d3 d93c d80d 57bd f6e0 09bc e62e f33c
000002c0: 73d2 b9bc a4fd 293d 99e3 70bd 0f70 943c
000002d0: 4073 33bc ec5e 9c3d 7834 86bc c080 d8bc
000002e0: f2b7 2a3d cef0 2bbd b1ac 103c b6f5 833c
000002f0: 928c a13d c609 85bd 9ec4 6abc b96d f13c
00000300: e40a 843d 7fce ab3d be1f aa3c 5f87 00bd
00000310: 7ffd 343d b090 59bd fd3c a93b 34c1 51bd
00000320: 0bd9 8bbd d24b 6a3d 476a eb3c 411d 593c
00000330: 418e 6d3b d4cd 4fbd 3d69 8b3d bf21 11bb
00000340: 670c 433d f556 4e3d 9514 71bc 4041 813d
00000350: 914f 973d 5081 9f3d 6576 febc 3b7c 573d
00000360: df2f 673d 0f11 b5bd 408b 87bb 26db 563c
00000370: 5ebd eabc 7b3b c83c 87b2 f4bb 9b0e e2bc
00000380: 65eb 6fbd 054c a7bd 2d72 453c 5843 493d
00000390: 819a 05bb 48f1 b4bc 2f81 26bc 345c 273d
000003a0: 6c85 a13d fa01 86bc abd6 40bb 74a9 823d
000003b0: 308c c03b 0151 67bd d422 5abd 33ba c83b
000003c0: d2ad 723d 0496 5b3d 81e5 6c3c 8829 923d
000003d0: 5b37 8f3d 1d05 27bd d78b 413d ca91 85bd
000003e0: 09cc 0cbd 45c0 10bd e852 953d 88b6 5fbd
000003f0: 2d29 afbd d535 423d f859 2a3d b71f 93bd
-6.392807e-05 -0.07611063 0.07394253 0.03797299 -0.019514931 0.028921332 0.082529634 0.075636566
-0.07215537 -0.023704913 0.0032180995 0.07857292 -0.020144075 -0.067261636 -0.056318607 -0.056245074
-0.014414368 0.012895629 0.044035997 -0.010528447 -0.006710674 0.005266759 0.046044916 0.051199414
0.086670704 -0.06891183 -0.06440166 -0.084882095 0.046783287 -0.06320089 -0.07045833 -0.04670262
-0.05749135 0.08188766 -0.02531739 -0.02905215 0.054179616 -0.004326415 -0.0095453095 -0.07055386
0.022553224 0.052468065 -0.029037857 0.071047105 -0.04313267 -0.016595231 -0.0013225883 -0.07427117
0.01603707 -0.06246664 -0.06908026 0.042272955 -0.002613391 0.03962881 0.033199266 0.048698537
-0.059159502 0.023855062 0.052356914 -0.033599053 0.032016482 -0.041167185 0.022862667 0.03381319
-0.08501513 0.0046577496 0.09362701 -0.090624765 0.07024088 -0.018751558 0.003614878 -0.0477273
0.03452677 -0.03436385 0.016405566 0.011296094 -0.007928024 -0.0443332 -0.04438571 0.087681964
0.07195098 0.050089106 0.034306865 -0.0018327413 0.07335217 0.07436537 -0.069399364 0.025581256
-0.06389484 -0.04807248 -0.0027283693 -0.018870782 0.039604608 -0.027890509 -0.04088459 -0.07030489
0.06597255 -0.05326347 -0.055687226 -0.07807928 -0.03963542 0.072927706 0.08037573 -0.023369186
0.040545195 0.016197542 -0.07804013 -0.05719588 -0.039349813 0.009188459 -0.021988072 -0.04928592
0.07755277 0.020124407 0.009339763 -0.070345476 0.029699393 0.058798935 -0.023695718 0.055183318
-0.033392332 0.0742409 -0.03869305 0.017376762 -0.056830324 0.04064401 0.03764747 0.08578835
0.033303674 0.010460239 -0.07886041 0.015673006 -0.011306303 0.08236818 -0.08305019 0.004237245
-0.029283836 -0.08012379 -0.05406636 -0.06567806 -0.01640294 0.08137234 0.02503882 -0.008725576
-0.051627442 -0.062681705 -0.02549792 -0.014182474 -0.014977769 0.010598044 0.0029212658 -0.008315263
-0.05745427 -0.0634377 -0.05164309 -0.042727023 0.082466036 -0.055048406 0.050149158 0.08383603
0.044889305 -0.06629782 -0.09138633 0.027128646 -0.0724451 0.013604339 0.028700331 -0.0071193282
-0.03057195 0.049922124 0.06618011 -0.06639053 0.026590291 -0.052503437 -0.008415451 0.029685449
-0.022683358 0.041501656 -0.058810804 0.01811984 -0.010952771 0.076352924 -0.01638244 -0.02642858
0.04167933 -0.041977696 0.008830235 0.016108375 0.0788814 -0.06496005 -0.014329104 0.029471265
0.0644739 0.083889954 0.020767089 -0.0313791 0.044187065 -0.0531165 0.005164741 -0.051209643
-0.06828507 0.057201214 0.0287372 0.013251604 0.003624812 -0.050733402 0.06807182 -0.0022145358
0.04761925 0.050375897 -0.01471438 0.063112736 0.07388223 0.07788336 -0.031062314 0.05260871
0.056442138 -0.08841144 -0.004136473 0.0131137725 -0.02865475 0.024442425 -0.007467571 -0.027594855
-0.0585741 -0.081687964 0.012051147 0.04913649 -0.002038628 -0.022087708 -0.010162636 0.040859416
0.07886776 -0.016358364 -0.0029424827 0.06379977 0.0058760867 -0.056473736 -0.05325587 0.0061257123
0.0592478 0.053609863 0.014459015 0.07136828 0.0699298 -0.04077636 0.047252502 -0.06521948
-0.03437427 -0.035339613 0.07291204 -0.054617435 -0.085527755 0.04741462 0.041589707 -0.071837835

weight f4 [128, 256]
00000000: d759 b5bc b6f9 883d 1789 82bb d687 62bc
00000010: dad1 043e 87fc 42bd f30b cbbd fc24 303c
00000020: 5f07 603d 738a 93bd f1fe dc3d eb50 213e
00000030: c05b 113e 9139 a63d 595f 183d fec0 673d
00000040: 5dd1 a43d 8183 573d f026 073d f7d9 90bd
00000050: ef58 7fbd e17f 8bbd 03d8 903d 2523 073d
00000060: bb6c f03d 8494 1cbe 860e d3bb 3502 e63c
00000070: d6b5 323d 1669 ea3c 6b2d a8bb 25bf 1e3d
00000080: 5bda cd3d 1c17 99bd 0c5b 33bb 0767 13be
00000090: a628 143d a718 7fbc 441e 09bd efea 5f3d
000000a0: 5330 08bc fc8c d7bd 66b9 da3d 35ab b23c
000000b0: ee04 513c f79e 3dbd 1a59 1abd cea6 6c3c
000000c0: 49a0 88bd 3e40 c83d 534c 903b 4d92 063d
000000d0: dfca 86ba 12c0 20bd 9456 18bd 428c 91bc
000000e0: b2ca 32bd 97cc 60bc 7463 8fbd 21b8 3e3d
000000f0: 35a1 e53d 3cf6 263b 4624 53bc cc89 e73d
00000100: 14e5 c13d 51eb 423a cfd7 44ba 2501 bfbc
00000110: 7055 e03d 2985 2c3d 4c6f 65bc 1b18 d4bd
00000120: 364d 87bd 98e5 183d 6409 61bd 8f51 453d
00000130: 5b6b 123d ec77 833d 431b 5c3d 7b9f 123d
00000140: 5d97 e1bd fb2b c63d 7a8f 68bd 2c0d e1bb
00000150: 6e49 b4bc c385 dd3c 5b38 22bd f0ad 6039
00000160: 5bb9 773d 90ed 1c3c d915 8f3c d53f 703d
00000170: bb4c 48ba 349b 6e3b 8d59 1d3e 3843 b6bd
00000180: d38d 73bc 8c7f 7fbc bc8f cbbd b7d6 c9bc
00000190: 0054 703c 0a9f 5d3d 1053 2f3d 3e8c 27be
000001a0: 5a8a 0a3d 6a3b 8f3c 7e15 e53b 2e88 e9bd
000001b0: 9257 23bd 84f7 23bd 5d5d b03c 84c2 9abd
000001c0: c72c 27bd f120 91bc a8ac 7bbc 3d47 b93c
000001d0: f73a e1bd 173c c13d 2d0a 063b a5ab a9bb
000001e0: 36b6 12bd a63c 95bd 33c8 16bb 1d9d 09be
000001f0: c0ef 0bbd c7a4 6c3d 3e6d 373c aa7e c2bb
00000200: 7636 8fbc 1f57 b2bc 163d 19bd cca7 d3bd
00000210: 5d71 0c3c c2f3 b6bc e751 12bc 1361 5cbd
00000220: e0ad 74bb b671 a1bd ecaf 08bc 5397 423d
00000230: aadd 763c aa18 63bd bc2b 02bd 1091 11be
00000240: 30f7 103d 42e2 a83c 0740 a83c 4a94 913d
00000250: 93af 3b3d baca 67bb b3f3 9abd 81cc 0cbd
00000260: b489 4e3d 30fb 9bbd 4e6b bb3d 22e9 54bd
00000270: 151c 02be b085 29bb d60b f33c d13f a4bd
00000280: 23f2 8b3d 5e66 85bd 8058 3cbd 4739 563d
00000290: 0140 2f3e 3f74 b13c 1291 92bc 7609 3e3d
000002a0: fbee 31bd f304 703c a763 0bbd 5ae3 873d
000002b0: 5e1a 02bd f9b5 a13c 5cbc 0fbd 78f4 84bc
000002c0: c69f a73c 851f 10be 8f18 73bd 2a2a 74bb
000002d0: a8a2 183d 90c2 c7bb 661f e53d 59a2 9cbd
000002e0: 4ef3 8abd bc2a da3d 61c9 c13d 62f3 1a3e
000002f0: fee4 fbbd ee0e 3ebb bcd4 6d3d fa96 34bd
00000300: 93be 743d 33cd b3bc 9abb b0bc 09f5 493d
00000310: ca55 ab3d 44f4 92bd a969 573e bd38 c93c
00000320: 7702 98bd ebd1 213d dad4 a73c 017a cfbc
00000330: 8c18 4dbd d8cc a73d e47b 423c 4832 1bbe
00000340: dfd5 35bd ed83 1b3d 3f54 35bd 2245 e73c
00000350: e970 67bd cdef 0d3c c98e 68bd 8dcc a73c
00000360: 9378 963d ee1d 0a3d af3d 67bb abb7 263e
00000370: 2655 27bd 885c c83c 4ff6 dcbc 89a7 a43c
00000380: 9d2c 313e b7ad 8e3d 103b 443d 1a7c cb3c
00000390: 8d8b 753d c677 0c3c 7411 5c3d 2c9a c2bc
000003a0: f500 753d fe57 e93d 5e52 833d ebbd 713c
000003b0: f2ea 2dbd 7337 3c3c 48a4 ef3c 4564 8b3b
000003c0: f6cc 89bc 3f38 583d 9727 3cbd c0b3 a43b
000003d0: 7312 d33d 5289 663b f5e2 96bd f233 2dbd
000003e0: 4fe0 d1bd 4916 813d cf3a 66bd f389 c83c
000003f0: 0a1b 2abd 4774 9cbc fced 3cbd 14d4 053d
-0.022137566 0.066882536 -0.0039836275 -0.013826331 0.12970677 -0.04760411 -0.099143885 0.010751005
0.05469453 -0.072041415 0.10790814 0.15753524 0.14195156 0.08116449 0.037200306 0.056580536
0.080477454 0.052615646 0.032996118 -0.070728235 -0.062340673 -0.068115 0.07072451 0.0329925
0.11739489 -0.15291029 -0.0064409403 0.028077224 0.043630444 0.028614562 -0.0051323674 0.03875651
0.100514136 -0.07475111 -0.00273675 -0.1439477 0.036171578 -0.015569842 -0.03347613 0.05466741
-0.008312303 -0.105249375 0.10679893 0.021810153 0.012757523 -0.04629418 -0.03768263 0.014444066
-0.06671197 0.09777878 0.00440363 0.032854367 -0.0010283849 -0.039245673 -0.037191942 -0.017767075
-0.043650337 -0.013720653 -0.07001391 0.046562318 0.112123884 0.0025476357 -0.012887066 0.113055795
0.09467521 0.00074355776 -0.00075089646 -0.023315975 0.10953796 0.04211918 -0.014003586 -0.1035616
-0.06606524 0.037328333 -0.054940596 0.048173483 0.035746913 0.06419358 0.053736936 0.035796624
-0.110151984 0.09676357 -0.056777455 -0.0068680253 -0.02200767 0.027041322 -0.039604526 0.00021427101
0.060479503 0.009578124 0.017466472 0.058654625 -0.0007640828 0.0036408426 0.15366192 -0.0889954
-0.0148653565 -0.015594374 -0.099395245 -0.024638517 0.014668465 0.05410675 0.042803824 -0.16362092
0.03382335 0.017484386 0.0069910875 -0.11402927 -0.039878435 -0.04003097 0.021528894 -0.07556632
-0.040814187 -0.017715903 -0.015360989 0.022616977 -0.10997575 0.09435289 0.0020452843 -0.0051779323
-0.0358183 -0.072869584 -0.0023007512 -0.1343884 -0.03416419 0.05777433 0.011195479 -0.0059355097
-0.017482024 -0.021770058 -0.03741177 -0.10334739 0.00857195 -0.02233303 -0.00893066 -0.053803515
-0.0037335083 -0.07883017 -0.008342724 0.047507595 0.015067497 -0.055443443 -0.03177999 -0.14215493
0.035391986 0.0206157 0.020538343 0.07108362 0.045821737 -0.0035368637 -0.07566013 -0.034374718
0.050424293 -0.076162696 0.09151326 -0.051980145 -0.12706025 -0.0025867037 0.02966873 -0.080199845
0.06833293 -0.065136656 -0.045982838 0.052300718 0.1711426 0.021661876 -0.01789144 0.04639574
-0.0434408 0.0146496175 -0.034030583 0.06635161 -0.031763427 0.019740092 -0.035091743 -0.016229853
0.020461928 -0.14074524 -0.059349593 -0.0037256577 0.037264496 -0.0060961917 0.111876294 -0.07648153
-0.06784688 0.10652682 0.09462238 0.15131906 -0.12299536 -0.0029000598 0.058064207 -0.044089295
0.05975206 -0.021948433 -0.02157383 0.04930595 0.08365972 -0.07175496 0.210364 0.024563188
-0.07422345 0.039506834 0.020487238 -0.02532673 -0.050072238 0.08193368 0.011870358 -0.151559
-0.044393416 0.03796761 -0.044269796 0.028231207 -0.056504164 0.00866313 -0.056776796 0.02048328
0.073472165 0.03371995 -0.003528457 0.16281001 -0.04085269 0.024458185 -0.026972918 0.020099418
0.17302175 0.06966727 0.04790789 0.02483945 0.05994754 0.008573478 0.053727582 -0.023755156
0.059815366 0.11393736 0.06412195 0.014754753 -0.04246039 0.0114878295 0.02925314 0.0042538964
-0.016821366 0.052788015 -0.045936193 0.0050263107 0.10306253 0.0035177064 -0.07367507 -0.042285867
-0.102478616 0.06303079 -0.056208428 0.024479842 -0.041529693 -0.019098414 -0.046125397 0.032672957

bias f4 [128]
00000000: 3f21 1d3c 503b 27bd d3d0 58bd fc29 a33c
00000010: 62af 59ba 57af 3c3c 15d4 463d a7d9 5e3c
00000020: 1b21 323d 61cb 1ebd ff64 ccbc 9c4e 65bd
00000030: 5a42 40ba cb21 363d 1ec2 033c e815 0bbd
00000040: 23bb 723b 7573 e8bc ea49 67bd ee72 493c
00000050: defd ca3c 41b7 88bb f2da 853b 86f3 923c
00000060: 8d53 44bd 6065 53bd b445 fabc 0ab0 0e3d
00000070: 5eaf 34bd ef57 78bd 97df f9bc b235 95bb
00000080: e1aa ccb9 3ca0 103d 6e94 3abd c91b 3d3d
00000090: d4aa 263d 031c 8c3c 18d1 4e3d cf01 473c
000000a0: e877 0d3d ef3d 56bc 6f8b 353d aedb c0bc
000000b0: 852b c33c 3b5f 973b 7dd0 7c3d 7463 353c
000000c0: 6917 33bd 8cc0 3f3d 2eb4 b1bc 1131 813d
000000d0: e119 73bd 6770 14bd d228 4ebd 430c 60bc
000000e0: 9fa6 ebbb 21c1 83bc 4ab7 26bd 3b09 6f3c
000000f0: 0560 0f3d b5ae b0ba d0a2 0fbb 52a4 38bd
00000100: ec4d c43c c169 5cbc f002 603d 1a67 7a3d
00000110: 5a94 22bd c6b4 5fbd 3bb4 adbb 60c7 c9bc
00000120: 54fa 9d3c 21d3 fd3c a111 d23c 43a2 033d
00000130: 9e3c 00bc c11a a63b e91d 28bd 811a 1f3b
00000140: 9c71 40bd 20fd 6fbb 72e5 7b3c 4239 dbbc
00000150: 7033 77bd 2f6c 74bd 1c94 043c 8f4b 20bd
00000160: 6d5b 403d 922a afbc 1012 48bd 3291 12bd
00000170: 5daa f63c 876c 19bc bf92 b2bc 3e1a 883c
00000180: af1a 3dbd fffe 573d 31cb dbba 12f5 dc3c
00000190: 20ba 29bd 5efe 4e3d 28f0 8fbb 05e2 4c3d
000001a0: 2b0f 383d 4a9e 833c 8b04 9b3b bd2c a93c
000001b0: 647b 1cbd bd75 98bc 281f 543c 315b ee3c
000001c0: 3b8f 243c 5e76 bebc d45b 7d3c e82d 9f3b
000001d0: b9bc 79bb 9d4f 763b 275c 7d3d fe0b 55bd
000001e0: 306c 8bbc 51f3 053d 4700 333c a2c4 6bbd
000001f0: 08c0 f73c 255d e2bc 0940 c4bc 7bd0 513d
0.009590446 -0.04082805 -0.052933525 0.01991748 -0.0008304027 0.011516414 0.0485421 0.013601697
0.043488603 -0.038768176 -0.024950502 -0.05598317 -0.0007334106 0.04446582 0.008041887 -0.03395644
0.0037037812 -0.028375367 -0.056466974 0.012295468 0.024779256 -0.004172236 0.004084938 0.017938387
-0.047931243 -0.05161035 -0.030550815 0.034835853 -0.044112556 -0.060630735 -0.030502124 -0.00455352
-0.00039037227 0.03530906 -0.04555171 0.046169076 0.04069026 0.0171032 0.050492376 0.012146427
0.03453818 -0.01307629 0.044322427 -0.023542251 0.023824463 0.0046195067 0.061722267 0.011071075
-0.043723498 0.046814486 -0.021692362 0.06308187 -0.059350852 -0.036240008 -0.050331898 -0.013674798
-0.0071914936 -0.016083302 -0.04070214 0.014589603 0.03500368 -0.0013479801 -0.0021917112 -0.045078583
0.023962937 -0.013452948 0.0546903 0.06113348 -0.03969226 -0.05461576 -0.005301026 -0.024631202
0.019284405 0.030984463 0.025643172 0.032137167 -0.007826952 0.0050691073 -0.04104415 0.0024277272
-0.046983346 -0.003661938 0.015374528 -0.026760701 -0.06035179 -0.059673484 0.008091953 -0.03913456
0.04696219 -0.021382604 -0.04884535 -0.035783 0.030110532 -0.009364254 -0.02179849 0.016614076
-0.046168026 0.052733418 -0.001676893 0.026972327 -0.04143727 0.050535552 -0.0043926425 0.050020237
0.04493634 0.016066689 0.004730766 0.020651216 -0.038203612 -0.01861083 0.012946881 0.029096218
0.010043914 -0.023249801 0.015463788 0.0048577674 -0.0038106872 0.0037584074 0.06185546 -0.05201339
-0.017019361 0.032702748 0.010925359 -0.05756057 0.030242935 -0.027632305 -0.023956316 0.051224213

weight f4 [4, 128]
00000000: 9384 c93d 28e5 b63d de1c 683d f934 553d
00000010: 1c2a bd3d cc60 083c 735b 283e eb15 ccbc
00000020: 7699 5abe 534e c3bc 689d e03d 1740 dabd
00000030: aa70 8f3d e102 d6bd 89a5 59be 5460 84bd
00000040: 98e7 813d a586 cebd 184c 0d3e bd4b f4bd
00000050: 7ac0 b1bd 4f40 ab3c cd10 d43d 0359 aebd
00000060: d515 c83d 755b 0d3d d1c3 acbd fb0d 92bd
00000070: 917f 9dbb dd33 5cbd 3eb0 c03d d5c3 30be
00000080: 8316 a6bd 720e f23d 5897 e8bd 165f d8bd
00000090: 2f85 cebb 2280 00bd 4fff a1bd 75e6 253d
000000a0: 21d2 323d d4a0 11be 75ad 5d3d d2e1 9d3d
000000b0: aa84 2b3e f25d 7dbd 81d1 873d fc0c dbbd
000000c0: 89dc 2e3e b265 45bd 252b e53d c511 b8bd
000000d0: 8258 be3d 0e23 a43c fc42 123d fa43 a0ba
000000e0: d54b 33be 9ccd 4cbd 7d78 1fbe 9549 f23d
000000f0: a271 0fbe 553b 12be 536c 643d 7959 b2bc
00000100: 27ac 963d 7ce0 863d d7e3 973d e13d cbbd
00000110: bb70 b5bd c3e0 e83d 9edf 3c3e 07d0 d23d
00000120: d4d0 263e 82f1 d8bd 6694 133e 6518 8dbd
00000130: 9191 033c 0466 133e 760b 1ebe da7b 043e
00000140: 177e 08bb 20de f1bd 3f95 29bc 9d05 40bd
00000150: 2578 3bbc fd86 c43d 9abd 9d3c b924 df3d
00000160: 623e 2f3d 67ee b13c 7861 adbd 52b7 013e
00000170: c414 34be 7c82 123e ac39 c63a eddb e2bd
00000180: dcae 0e3e aa79 08bd befa 7a3d b174 b8bd
00000190: bc8a c73c 5540 1f3e 0621 003d 8f0a bfbd
000001a0: 6d68 84bc 8e2d 30be 2d2a 02be f6b8 1ebe
000001b0: 8f7c b63d 58e0 0a3e a2a3 06be fd3d 453d
000001c0: 197c 54be 49d0 19be fdc2 e2bc 2549 91bd
000001d0: cbff b1bc f262 0abe a5a5 90bd 6462 683d
000001e0: de0f 2d3e b5de 2c3b 9b5a 84bd de0e a23d
000001f0: 073b 043e 15ea 40bd 8c7e a6bd aeb0 013e
00000200: 1635 e73d 9232 303d 9c53 b83d 0e5a 27bd
00000210: 5dd0 003e f8df 403e 4301 35bd f511 803d
00000220: f8c5 d53c a1d2 bdbc f7c9 5dbd dd35 9e3c
00000230: b967 77bd 01d8 91bd 3307 cb3c 33a2 40be
00000240: 6aca c3bd 6958 27be 254a be3c dba5 e43d
00000250: 8312 12be 3b0c 0d3e afda 04be cbd3 3dbe
00000260: 2abf abbd bffe 06be 63a0 29bd 3932 44bd
00000270: 2abd 0dbe 9eae 4dbd c89e bf3d 2636 2c3e
00000280: b1cd aabd b4be 4a3d f1f9 a13d d54e f9bc
00000290: 94b2 14be a8cf 083e 20b3 9fbc 22e4 383e
000002a0: caa7 84bb 3982 493e ad7b fbbd 4710 8a3d
000002b0: 35bf 83bc b4e5 a8bd 38bf b33d 0555 173d
000002c0: 5fda 39bd e609 6cbd 7c81 1b3e e446 d83d
000002d0: f5bf b2bc 6ea3 013e ec13 1b3d 92c7 5d3e
000002e0: 42d0 f0bd 83bf 403e 3a5e 9a3c f677 8abc
000002f0: ad3f 3cbe 08d3 d8bd efe2 48be 5d61 5abd
00000300: 8308 f43d 4c1e 563b c6d3 26bd 1338 9bbd
00000310: 229a efbd c5fe c83d 2ecf 593d ccd4 36bd
00000320: 57f3 0bbe 585e 3e3d 9ff8 e4bc 29d6 df3d
00000330: 4735 b4bd e6b3 0c3e 3c66 38bd 5f42 37bd
00000340: 4ecf 543d ba29 20bd 220f 523e 5166 27bd
00000350: ce30 253d b581 c83b 2c90 c5bd 2a7d 6c3d
00000360: 18b3 013e a3a1 0d3e 3bba b93d 25e2 753b
00000370: 61ed 123e 7df8 dabd 391e febd f5ee e73d
00000380: df0f 213d 3b97 ab3d ebc5 9dbd dde8 e93c
00000390: 5b1e febd eb72 2cbd 367e 4fbe 2933 35bc
000003a0: 64d2 d43d ce91 883d 43fc b43d 1e41 86bd
000003b0: 4c2a 94bd 92ce 78bc 1122 e7bd a30d de3d
000003c0: 7793 c2bd e8be 0a3e a3ea 033e 5af9 1a3d
000003d0: f43f 24be 1ccc ba3d 8199 fcbc db3d 1c3e
000003e0: e155 28bd 8842 193e 7a90 533e 62b4 d1bd
000003f0: ffbf eebd 4bd3 12be afbf aabd fcec 23bd
0.0983974 0.08930427 0.056668155 0.05205247 0.09236547 0.008323859 0.16441135 -0.024912795
-0.21347603 -0.023841059 0.10967523 -0.106567554 0.07003911 -0.10449768 -0.21254553 -0.06463686
0.06343001 -0.10084275 0.13798559 -0.119285084 -0.0867929 0.020904688 0.10354767 -0.085130714
0.09769789 0.03451105 -0.084357865 -0.07131573 -0.004806467 -0.0537604 0.094086155 -0.17262204
-0.081097625 0.118191615 -0.113569915 -0.10565011 -0.006302498 -0.031372197 -0.079100244 0.040502984
0.043657426 -0.14221507 0.0541205 0.077090874 0.16749826 -0.06185717 0.066317566 -0.10695836
0.17076315 -0.048192687 0.1118987 -0.08987764 0.09294225 0.020036247 0.035708413 -0.001222729
-0.17509396 -0.050000772 -0.15573306 0.11830441 -0.14008191 -0.14280446 0.05576737 -0.02177118
0.07357054 0.06585786 0.07416504 -0.09923912 -0.08859392 0.11370995 0.18444678 0.10293584
0.16290599 -0.10592939 0.14412078 -0.068894185 0.008030311 0.14394385 -0.1543406 0.1293787
-0.0020827109 -0.11809945 -0.010350524 -0.046880353 -0.011442219 0.095960595 0.019255448 0.10895676
0.042784102 0.021720124 -0.08465856 0.12667587 -0.17586046 0.14307588 0.0015123389 -0.11077104
0.13933891 -0.033319153 0.061274283 -0.09006632 0.024358146 0.15551884 0.031281494 -0.09328186
-0.016163075 -0.17204878 -0.12711401 -0.15500244 0.089104764 0.13562143 -0.13148358 0.04815482
-0.20750464 -0.1502086 -0.027680868 -0.07094029 -0.021728417 -0.13514307 -0.07062844 0.056734458
0.16900584 0.002637786 -0.06462594 0.07912992 0.12913142 -0.047098238 -0.08129606 0.12665054
0.11289422 0.043016978 0.09000322 -0.040857367 0.12579484 0.18835437 -0.044190656 0.06253425
0.026095375 -0.023171725 -0.054147687 0.019312793 -0.060401652 -0.071212776 0.024783706 -0.18811874
-0.09560092 -0.1634232 0.023228714 0.11164447 -0.14264874 0.13774197 -0.12974046 -0.18537824
-0.08386071 -0.13183115 -0.041412722 -0.04789946 -0.13841692 -0.050215356 0.09356457 0.16817531
-0.08340014 0.049498275 0.07909001 -0.030433098 -0.14521247 0.13360465 -0.019494593 0.18055776
-0.0040483223 0.19678582 -0.12279449 0.06741386 -0.016082386 -0.082469374 0.087767065 0.036946315
-0.04537427 -0.057626627 0.15186113 0.10560396 -0.021820048 0.1266 0.037860796 0.21658161
-0.11758472 0.18823056 0.018843759 -0.016902905 -0.18383665 -0.10587126 -0.19617818 -0.05331551
0.11915686 0.0032671867 -0.040729307 -0.07579055 -0.116993204 0.098142184 0.053176098 -0.044636533
-0.13667046 0.046476692 -0.027950583 0.1092952 -0.08799224 0.13740501 -0.045019373 -0.04474103
0.051955514 -0.039102294 0.20513585 -0.04086906 0.040329747 0.006118978 -0.09646639 0.057736553
0.12665975 0.13831191 0.09068724 0.0037518826 0.14348365 -0.10691927 -0.12408108 0.11324874
0.039321776 0.08378454 -0.077037655 0.02855342 -0.124081336 -0.04210178 -0.2026299 -0.011059561
0.10391691 0.06668435 0.088371776 -0.06555389 -0.0723463 -0.015185969 -0.112857945 0.10842445
-0.09500783 0.13549387 0.12882476 0.037835456 -0.16040021 0.09120962 -0.030834915 0.15257971
-0.041097526 0.14966786 0.20660582 -0.102394834 -0.11657714 -0.14338414 -0.08337342 -0.040020928

bias f4 [4]
00000000: 5716 803d 3d21 99bd 3361 22bd 8b75 85bd
0.06254261 -0.07477043 -0.039643478 -0.0651656

weight f4 [128, 16]
00000000: d0ac 0dbe d73f da3b 3553 c0bd 4a51 eb3d
00000010: 4027 55bd 4cb6 27be 24a9 54be f5ad 463e
00000020: 000a 313d 86c9 5b3f 4aa6 1d3f fae1 133e
00000030: c907 a9be 82e2 643e fe4d eebe 3d7d 46bf
00000040: 5678 273e c95e 67be 4025 33bc 8087 6cbd
00000050: 1ca6 e83d cb46 063e 0e85 0fbd 0902 5a3e
00000060: d1a4 963d 60f4 1ebf 49ef 00bf 5f0e 0a3e
00000070: 37ec 2ebc 8674 89bd 5ab0 0f3f 4979 8d3f
00000080: 3605 c13d 72fb ce3d 1113 9bbd c3cd b9bd
00000090: e1b9 9dbd 3c9f 2ebe 22fe 20be 34b6 27be
000000a0: b728 8b3d 294b dc3e a3c8 233f a587 9d3e
000000b0: 80cc a43e 62e9 ffbd a34b d7be fb63 10bf
000000c0: 038b 70bb f190 14be d934 7e3e 1159 55bd
000000d0: 92cf 8abd adbe 633e 630d 113e 6c7f f5bd
000000e0: 3d04 3a3e f283 e9be 119e 46bf 7e24 123e
000000f0: a923 dd3e 6615 0a3e 8272 473f b0c7 573f
00000100: 09e4 cbbd 3d7d 82bd face aabc 2423 41bd
00000110: 3598 8abe 7f48 3b3e 508d 253d a14c 90be
00000120: 6db7 a1bd 6f50 8cbe da90 abbe 1f4d babd
00000130: 597b 4ebe 3991 003f 041a 8b3e b79d 853f
00000140: 0c0e 91bd 6bc6 2a3e 95a4 ecbd aafe 78be
00000150: 7b0b 16be 7a69 3bbe 5cb8 ec3d 1df1 16bd
00000160: c9c5 a6bd 0f37 073f e971 f53e 4fa6 dd3e
00000170: 5740 31be 1bfb aebd b5b5 ebbe bc95 4cbf
00000180: 29eb 28be 7cf9 86be 15a2 96bd 5c80 89bd
00000190: 26b2 2a3e bc1e 843e c3b3 cdbc 88f7 443e
000001a0: 63fb ba3d e26f adbe 67e5 bcbe 504c 883e
000001b0: d4b8 443e ede1 62be fac4 e73e 911b 753f
000001c0: 19f2 b9bc 750f 6b3e 82bb 8e3e 12ab 15bc
000001d0: 082c 27be c19a a63d 5786 9b3d f416 a93d
000001e0: adc3 2d3e e720 09bf 4459 e8be 79db 6e3d
000001f0: 2695 e4bd 6268 b5be 8dc8 3c3f 53da 803f
00000200: d759 48be cf89 a7bd 85a5 4f3e aa2e ac3d
00000210: 5fb9 013e bc1b 6dbe bbe9 0d3e bd74 413e
00000220: 61b6 64be 488c 823f 2d0d 6f3f 457d 15bd
00000230: 517d 77be c3ae f33d 42fb 51bf 05b6 92bf
00000240: 4a43 453e 75ba b53d 5583 34be de62 08be
00000250: ac30 413e 88fc 323e 6ebb e9bd d33b 8cbe
00000260: cf79 f73c 7806 2fbf 4c66 45bf 9d83 8f3e
00000270: 84f5 053e 9838 453e 09e0 1a3f 5c9f 3c3f
00000280: 0489 883d 5ed6 d5bb b0b3 f2bc cf75 68be
00000290: 2d78 783e 34db ffbd 9b5e 743e 2c6e 7cbd
000002a0: 1036 bfbc 6019 e93e ea3e e23e ebfd 89be
000002b0: 0559 31be 71fb e9be 6533 45bf 7f52 7ebf
000002c0: 07ab 99bc c126 6d3e b757 21be 2ab6 58bb
000002d0: 6cc1 31be 12b9 54be 2718 23be c93c 0e3e
000002e0: 1b50 463e 196d 803f 710d 193f 2cd0 5b3d
000002f0: ae49 e93d 279d 0d3e ce3a 50bf 6940 51bf
00000300: 6f7b 9d3c 8602 753c f41a 423e 3724 8ebd
00000310: c3e9 7bbd 5454 8a3d be99 d6ba 74c8 f7bd
00000320: 2c84 593e b68e 4b3f 80fa 343f 6c40 99bd
00000330: af75 003c 80b6 d23d 2575 d0be 3c04 0f3c
00000340: a4e5 153e 14a2 3bbe c210 66bd 561c dbbd
00000350: 3b4d 513d ab94 98be c6e6 213e 883c 8ebd
00000360: 5514 fdbd c2a3 043f 86d1 133f be89 87be
00000370: 35ea 71bd 0532 d5bd eb0f adbe 214b 4ebf
00000380: 2d09 313e 580c 283e 6434 813d 562b 043e
00000390: 849a 41be cc5a 14be 0ad3 2d3d a661 4e3e
000003a0: b04c 96be 5f89 24be 7589 0cbf e6fb c2be
000003b0: f573 4ebe 700e 5d3e 2ae8 b53d cf97 c8bf
000003c0: a802 e23d 3b4e 3bbd 9ad2 863c 04be 4f3e
000003d0: 7da4 533e 394f a9be 96f1 00be 7b0d 24be
000003e0: 1571 05be f5cf 613f 089b 633f 96b4 113e
000003f0: 93fb 3dbe 025c 953e 1ebc 45bf 5f45 9bbf
-0.13835454 0.0066604423 -0.093908705 0.11490114 -0.052039385 -0.16378134 -0.20767647 0.19402297
0.043222427 0.85854375 0.6158186 0.14441672 -0.33013752 0.22352031 -0.46543878 -0.7753485
0.16354498 -0.22594751 -0.010934174 -0.05774641 0.11359808 0.13112943 -0.035039 0.21289839
0.07355655 -0.62091637 -0.5036512 0.13482045 -0.010676435 -0.06711678 0.56128466 1.1052638
0.09424822 0.10106553 -0.07571996 -0.09072449 -0.07701469 -0.1705293 -0.15721944 -0.16378099
0.06794875 0.43026093 0.6397802 0.3076755 0.3218727 -0.12495686 -0.42049894 -0.5640256
-0.0036703951 -0.14508416 0.24824847 -0.052086893 -0.06777872 0.22240706 0.14165263 -0.119871944
0.1816568 -0.4560848 -0.7758494 0.14271733 0.4319127 0.13484725 0.779091 0.84289074
-0.09955604 -0.063715436 -0.020850647 -0.047152653 -0.2706925 0.18289374 0.04041797 -0.28183463
-0.07896314 -0.27405116 -0.3350895 -0.09096741 -0.20164241 0.5022159 0.27168286 1.0438756
-0.07082757 0.16677253 -0.11554829 -0.24315897 -0.14652817 -0.18301955 0.11558601 -0.036851037
-0.08143193 0.5281839 0.4793847 0.43290946 -0.173097 -0.08543988 -0.4603707 -0.79915977
-0.16495956 -0.26362216 -0.073551334 -0.06713936 0.1666952 0.25804698 -0.025110131 0.1923505
0.091299795 -0.33874422 -0.3689377 0.26620722 0.19211131 -0.22156496 0.4526747 0.9574519
-0.022698449 0.22955115 0.27877432 -0.009135025 -0.1632539 0.08134986 0.07593983 0.08256331
0.16969176 -0.5356583 -0.45380604 0.058314774 -0.1116126 -0.354312 0.73743516 1.0066627
-0.19565521 -0.08180582 0.20277984 0.08407338 0.1266837 -0.23155111 0.13858692 0.18892188
-0.22335197 1.019906 0.9337948 -0.03649642 -0.24168898 0.118985675 -0.82024014 -1.1461798
0.1926395 0.088734545 -0.17628224 -0.13318965 0.18866223 0.17479146 -0.114127025 -0.27389392
0.03020945 -0.68369246 -0.7710922 0.280301 0.13081938 0.1925987 0.604981 0.73680663
0.06666759 -0.0065257987 -0.029626697 -0.2270119 0.24264593 -0.124929816 0.23864214 -0.061628506
-0.023341209 0.45527172 0.44188625 -0.26951537 -0.17319115 -0.45699647 -0.77031547 -0.9934463
-0.01875831 0.23159315 -0.15756117 -0.0033067563 -0.17358941 -0.20773724 -0.15927182 0.13890375
0.19366495 1.0033294 0.59786135 0.053665325 0.113910064 0.1382948 -0.8133973 -0.8173891
0.019223897 0.014954215 0.18955594 -0.06940501 -0.06150223 0.067543656 -0.0016372723 -0.1209878
0.21241826 0.79514635 0.7069473 -0.074829906 0.007840558 0.10288715 -0.40714374 0.008729037
0.14638382 -0.18323547 -0.056168325 -0.10698764 0.051099043 -0.29800925 0.1581069 -0.06945139
-0.12357394 0.51812375 0.5774158 -0.26472276 -0.059061248 -0.10409931 -0.33801207 -0.8058339
0.17288657 0.16410959 0.06308821 0.12907156 -0.189066 -0.14487761 0.04243759 0.20154437
-0.29355383 -0.16068028 -0.5489724 -0.38082808 -0.20161422 0.21587539 0.088821724 -1.5671328
0.11035663 -0.045728903 0.016457845 0.20287329 0.20668216 -0.33068255 -0.12592158 -0.16020767
-0.13031419 0.8820794 0.88908434 0.14229044 -0.18552999 0.2917176 -0.7724017 -1.2130545

bias f4 [128]
00000000: d0a9 16be 9965 ffbd 0472 5abc 6433 f63d
00000010: 0845 473e b84e a23d 8406 483e dc9a 62be
00000020: 95da 16bc 5c6b 8a3d 9c69 533e 103a f93d
00000030: a0c5 d1bd 8819 103c 0593 853e c8ee b13d
00000040: 82f5 60be 854d e6bd 77fc aa3c 0290 293e
00000050: 2a6f 4abe 3ea5 db3d 1c13 343e b55c 4e3e
00000060: 5663 7f3e 0bd6 0e3d 53e9 193e b88e 343e
00000070: aafe 8cbd 3e9a 7d3d 7ae9 32be a5c5 e03d
00000080: 9ccc 15be 9067 38be 01f8 8c3c 698f 2cbe
00000090: 8b98 91bd 8aa1 913d 9be8 2bbd 35b7 0fbe
000000a0: baf2 e03d 45b1 44be 6221 51bd d5b1 623e
000000b0: b588 fabd ee0f 5abc c966 c7bb a8a8 383c
000000c0: e1c6 52bd f630 253e 3249 f53c a42e 523c
000000d0: 829b f5bd f629 adbc f85f 773d 1524 dc3d
000000e0: c422 b4bd 5c83 eebc 10b5 4bbd 411b 823e
000000f0: bac0 243e e4a0 813c 3244 93be 1f77 3d3e
00000100: 91c5 e33c 46d7 5ebe 2f7c 5dbe 6fc5 32bd
00000110: d932 9ebd 5e3f 9d3d 8dc2 383e ef6c 98be
00000120: 25be 54bd d81d 973e a3fe 093d 90b1 273d
00000130: 1f6f 20be bce7 ac3d 0ae9 edbd 0e4a 3fbd
00000140: 70f8 c4bd 732c 673e b6a1 823e da1d 95bb
00000150: fad0 8abe 51c4 93bd 7faa 47be a43d 38bc
00000160: a76a 453e e3cb 68be 17e3 11bb 8fb3 8fbe
00000170: dd16 8dbe 34c7 3fbe bc5a 303e 73c6 ba3d
00000180: 7904 2bbe 38d8 123e da40 d5bc 0512 f13d
00000190: cba6 99bd f272 19be 5ca6 fe3d 25ac 72be
000001a0: 2566 d23d 2db0 173d bb9a a53d 2d31 38bd
000001b0: 0662 e1bd 0b56 23be b4d7 60bb 23bf b2bd
000001c0: b8c4 3ebd eb36 25be f5c2 8bbe 062c e6bc
000001d0: 7043 963d 20ff 063e f255 9e3c 5141 763c
000001e0: 4eb8 523d 2ab6 7c3e 22ce 61bd d388 d5bc
000001f0: 30de 9cbc f01b 503e 2571 a2bd ea25 f7bd
-0.14713216 -0.1247055 -0.0133328475 0.12021521 0.19459927 0.07925171 0.19533736 -0.22129387
-0.009207387 0.067587584 0.20645756 0.12169278 -0.10242772 0.00879515 0.2608873 0.08688122
-0.21968654 -0.112452544 0.020872338 0.16558841 -0.19768968 0.10724877 0.17585415 0.20152552
0.24940237 0.034872096 0.15030412 0.17632568 -0.06884511 0.061914675 -0.17471877 0.10975198
-0.14628834 -0.18008256 0.017208101 -0.16851582 -0.071091734 0.07110889 -0.041969877 -0.14034732
0.109837964 -0.19208248 -0.051057227 0.2213815 -0.12233106 -0.013309462 -0.006085251 0.0112706795
-0.051459197 0.16131958 0.029942129 0.012828503 -0.119925514 -0.021138173 0.060394257 0.107490696
-0.087956935 -0.029115371 -0.04973322 0.25411418 0.16089144 0.015823789 -0.28762966 0.18502472
0.027804168 -0.21761808 -0.21629404 -0.04364532 -0.07724542 0.07678102 0.18042965 -0.2977061
-0.05193915 0.29514956 0.033690106 0.04094082 -0.1566739 0.08442637 -0.11616714 -0.046701483
-0.09617698 0.2257555 0.25514 -0.0045506777 -0.2711256 -0.07215179 -0.19498633 -0.011245165
0.19278966 -0.22734027 -0.00222606 -0.2806668 -0.27556506 -0.18728334 0.17222112 0.091198824
-0.16700925 0.14340293 -0.0260319 0.11771015 -0.07502516 -0.14985254 0.12434074 -0.2369848
0.10273389 0.03703325 0.08086153 -0.044968773 -0.110050246 -0.15950792 -0.0034308257 -0.08727863
-0.046574324 -0.16134231 -0.27297178 -0.028097164 0.073370814 0.1318326 0.019328091 0.015030221
0.051445298 0.24678865 -0.055128224 -0.02606622 -0.019148916 0.20323157 -0.07931737 -0.120677784
